correction_net_epoch_1.pth (torch, 7540 bytes, 7 tensors)

conv1.weight f4 [8, 1, 3]
000000 dc 99 8b 3c c2 2b 38 bd 69 4e 86 bd 05 b2 fa be
       0.01704114 -0.044963606 -0.06557924 -0.48963943
000010 63 18 58 be f2 36 08 bd 40 66 09 bf a1 5d 5a 3e
       -0.21103053 -0.033255525 -0.53671646 0.21324779
000020 57 b9 9a be 1f a1 a4 3d ae 97 af be ee 2a 2a 3d
       -0.30219528 0.08038544 -0.3429541 0.041544847
000030 bb 09 08 bf e4 e2 0d 3f a9 da cf bd be 1c a6 3e
       -0.5313985 0.5542433 -0.10149128 0.32443804
000040 a0 3d a7 3e 1a 25 92 3e 98 7b 25 3e 70 3a b9 3e
       0.32664204 0.2854393 0.16160429 0.36177397
000050 60 ea e3 3d 1c 69 0c bf 59 35 c3 be 71 ea da 3d
       0.11128688 -0.54847884 -0.3812664 0.106892474

conv1.bias f4 [8]
000000 7f 30 2b be f4 a5 4e 3e 33 cd 09 bf e5 9c 25 3e
       -0.16717719 0.20180494 -0.53828734 0.16173132
000010 9b d2 b2 bd 00 e4 6a 3e 96 d8 0b 3f 60 d2 ee 3e
       -0.08731576 0.22938538 0.5462736 0.46644878

conv2.weight f4 [16, 8, 3]
000000 fb 07 a1 3c 43 32 3c 3c c2 d1 11 3e 65 c7 d9 3d
       0.019657126 0.011486593 0.14240173 0.106337346
000010 fd 7b 9e bd 51 40 ec bd df 86 e8 bd cf 73 c1 3d
       -0.07738493 -0.11535705 -0.113538496 0.09445917
000020 c6 af 8a bd 0e 09 b8 bd 03 af ff bd 89 a6 48 be
       -0.067718074 -0.08986102 -0.12484553 -0.19594778
000030 55 15 1c be b8 3e e3 3d ec 7e 1a be a8 fe bb bd
       -0.15242513 0.11095947 -0.1508748 -0.09179431
000040 c0 c2 9c 3d 04 b2 36 bd c5 bd 47 be 24 1c e4 3d
       0.07654333 -0.044603363 -0.19505985 0.1113818
000050 f0 d2 72 3d 21 d5 60 3d b6 69 89 bc e8 4f be bc
       0.059283197 0.054890756 -0.01677404 -0.023231462
000060 5c ec 5a bb 06 39 76 bd 3f dc 02 3e f4 c3 a2 bd
       -0.0033405041 -0.060112976 0.1277933 -0.07947531
000070 2d 02 00 3e bd 04 10 3e 0d 2b 3d 3e a9 1a 37 3e
       0.1250083 0.14064308 0.18473454 0.17881264
000080 f6 1a 32 be 17 2b 06 3e 47 3f 49 3e 7a d1 62 3c
       -0.17393097 0.13102375 0.19653045 0.013843888
000090 01 77 03 3e 46 0a 21 3d 25 a3 29 3e d0 cc 41 bc
       0.12838365 0.03931644 0.16566141 -0.011828616
0000a0 30 fc f4 bd 17 77 ee bd d6 79 37 be 97 b4 40 be
       -0.119621634 -0.11643808 -0.1791757 -0.1881889
0000b0 80 83 a3 bb 7c da aa bc 34 0c d8 bd bd cc b6 bd
       -0.0049900413 -0.020856135 -0.105492026 -0.089257695
0000c0 91 95 49 be 88 c0 81 3d 09 80 0e be c8 40 b0 3c
       -0.19685961 0.063355505 -0.13916029 0.021515265
0000d0 d0 f9 96 bd 8c 69 9b bd 88 94 91 bd 94 58 47 3e
       -0.07371867 -0.07588491 -0.07108408 0.19467384
0000e0 38 c1 bc 3d 14 26 15 be 2c 17 b4 3d 88 30 38 3e
       0.09216541 -0.14565307 0.08793482 0.17987263
0000f0 86 82 06 3e f0 f1 32 bc 66 3b 29 be b0 53 41 3e
       0.13135728 -0.01092194 -0.16526565 0.1887958
000100 d8 53 2d 3d 00 9c df 3d 8e ef 32 3e 40 7f 2b 3d
       0.042316288 0.109184265 0.17474195 0.041869402
000110 00 84 01 39 12 84 02 be d8 c1 8d 3c b8 b5 18 be
       0.00012351573 -0.12745693 0.017304346 -0.1491307
000120 54 20 1e be c3 4b 29 be 66 ab 56 3d 7d ab 0e 3d
       -0.1544202 -0.16532807 0.052409552 0.034831513
000130 af 8d 25 be 1d b5 56 be de 81 1e bd 55 30 42 3e
       -0.16167329 -0.20967527 -0.03869807 0.1896375
000140 2e ec ca 3b a5 a7 20 be 25 ce b1 bd fb 2a 05 3e
       0.0061927056 -0.15688951 -0.08681897 0.13004677
000150 d2 8c 7f bd cd 93 92 bd 97 c9 51 be 80 ea 91 bb
       -0.062390156 -0.07157097 -0.20487057 -0.0044530034
000160 30 97 8b bd f6 a5 20 3e 80 79 40 3e e8 f7 ce bc
       -0.06815946 0.15688309 0.18796349 -0.025264695
000170 18 58 15 3e 8b 24 35 3e 2d f8 48 3d a2 03 10 3d
       0.14584386 0.17689721 0.049064804 0.035159715
000180 a1 6f da 3d c3 5e b4 bc 46 e6 17 be e5 1d 8f 3d
       0.10665823 -0.022017842 -0.14833936 0.06988124
000190 73 8f 3c be 9c a4 2a bb 03 b5 29 3e 35 6b be 3d
       -0.18414097 -0.0026038056 0.16572957 0.09297792
0001a0 57 9d 28 be 39 9e d1 3d 0d 2e 08 3e 60 8b 8e bd
       -0.1646627 0.10235257 0.13298817 -0.069601774
0001b0 a1 7b c1 3d c5 cc 00 3e 41 a4 96 3d c0 0d f1 bc
       0.094474085 0.12578113 0.07355548 -0.029425502
0001c0 39 56 27 be d8 b3 44 3d d8 a2 0b 3e 00 93 20 bb
       -0.16341485 0.048023075 0.13636339 -0.0024501681
0001d0 a9 b6 4f be 39 4e 55 3e 8e c9 3e 3d 61 bb 54 bd
       -0.20284523 0.20830621 0.046578936 -0.05193651
0001e0 47 85 da 3d e5 c0 9c bd 8f df 89 bd 6e 20 41 bd
       0.10669952 -0.07653979 -0.067320935 -0.047150068
0001f0 e7 c0 55 be 17 1d f8 3d 26 d1 5b 3d cf 47 a3 bd
       -0.20874368 0.121149234 0.053666256 -0.07972681
000200 81 af 8a bd 6e c9 7e bd 6c c9 85 3c e1 81 17 be
       -0.06771756 -0.062203817 0.016331397 -0.14795639
000210 ae 7e 70 bd 69 ba 59 be d5 67 b3 bc 31 96 b4 bd
       -0.05871456 -0.21262516 -0.021900097 -0.08817709
000220 40 41 34 bd 15 25 06 be 30 48 3e be b4 bb 85 bd
       -0.04400754 -0.13100083 -0.18582225 -0.06529942
000230 60 ec a4 bb 8b 89 16 3e 29 d7 80 bd 07 d2 a7 3d
       -0.005033061 0.14700906 -0.062910385 0.081943564
000240 28 e9 a2 3d ca 63 80 bd 8d 36 27 be 57 b8 25 be
       0.07954627 -0.06269033 -0.16329403 -0.16183601
000250 14 45 71 bd 00 d8 61 bd a4 bd 16 bd 34 2c d7 bd
       -0.05890377 -0.055137634 -0.03680195 -0.10506478
000260 10 59 2a be c8 84 25 bd a4 b4 0a be 00 30 64 38
       -0.16635537 -0.040409833 -0.13545471 5.440414e-05
000270 31 ec e6 bd 5c cd 28 be 48 8f ed 3d 7c 06 8a 3d
       -0.11275519 -0.16484588 0.11599594 0.06739518
000280 ef 15 be bd 04 c6 04 3e 20 2f ee 3b 40 49 2f 3d
       -0.09281527 0.12966162 0.0072688013 0.042794466
000290 00 36 dc 3a c4 90 b5 bd 28 2f 2e 3e ed f5 dd bd
       0.0016800761 -0.088655025 0.17010176 -0.10837922
0002a0 90 d4 b0 3d 50 d1 08 3d 47 86 31 be a8 c1 55 bd
       0.08634293 0.03340274 -0.17336379 -0.052186638
0002b0 dc d6 eb bd 00 c0 b2 bc 00 f3 74 3a b0 6c e9 3d
       -0.115155905 -0.021820068 0.0009344071 0.113976836
0002c0 66 ec 49 3e 98 0b 88 3d 2a 03 07 be 55 18 ec bd
       0.19719085 0.06642836 -0.131848 -0.115280785
0002d0 b8 8a 87 3d ce ae 09 3e dc 83 9d bd 14 ee 00 bd
       0.066182554 0.13445589 -0.07691166 -0.03147705
0002e0 5c 47 f6 3d 78 fc 47 3e e8 3a 8a 3c 84 0f 1f 3e
       0.120253295 0.19529903 0.016873792 0.15533262
0002f0 d7 46 38 be e0 26 aa 3b a2 3e 12 be 78 fb c0 bd
       -0.17995773 0.0051926225 -0.14281705 -0.09422964
000300 1f a1 9c 3d 4f 27 86 3d 53 1b 81 bd 93 b8 1d be
       0.07647919 0.06550466 -0.0630404 -0.1540244
000310 b7 df 17 be d2 31 10 be 07 d5 31 3e 9d d6 36 3e
       -0.14831434 -0.14081505 0.1736642 0.17855306
000320 bf ba 28 3e 87 10 a6 bd f6 7b 53 3d 5c da d7 bd
       0.16477488 -0.08108621 0.05163189 -0.105396956
000330 53 52 f3 bd bf f4 9a bd 2c 19 02 be 4e 2f 21 3e
       -0.118809365 -0.07566213 -0.12704915 0.15740702
000340 8e f6 4b 3e a9 8d 0c be ab 4f e6 bd e8 cd c3 bc
       0.19918272 -0.13725914 -0.11245664 -0.023901895
000350 fc a7 9c 3d f5 63 07 3e 93 6e f6 3d 91 91 a8 bd
       0.07649228 0.13221724 0.12032809 -0.082308896
000360 9d 12 f7 bd 62 fc a9 bb 86 e3 11 be 7c 8f 97 3d
       -0.12064097 -0.005187557 -0.1424695 0.07400414
000370 a3 79 ec bd 87 fd 21 3e 58 9d 01 be 49 8c c7 bd
       -0.11546638 0.1581937 -0.12657678 -0.09743554
000380 2e ba d6 3b 1d c2 21 be c0 da da bd f0 e6 32 be
       0.006552956 -0.15796705 -0.106862545 -0.17470908
000390 18 be b1 bc 9c 29 bd 3d f9 ce 89 3d 26 36 49 3e
       -0.02169709 0.09236452 0.0672893 0.19649562
0003a0 0e 5a 9b bd 34 e1 11 be 1c 2a 4f bd 38 4e a8 bd
       -0.07585536 -0.14246064 -0.050577268 -0.08218044
0003b0 1c 22 b3 bd d1 77 34 be 1c 31 46 be 7f ba ee 3d
       -0.0874674 -0.17623831 -0.19354671 0.11656665
0003c0 3c 25 12 3e ec 54 7b bd a4 fc 8c 3d c9 e0 a6 bd
       0.14272016 -0.061360285 0.06884125 -0.08148343
0003d0 1c ae 97 3d 78 84 88 3c 65 e5 4a be ba 80 84 bd
       0.074062556 0.016664729 -0.1981407 -0.06469865
0003e0 26 3e 04 3e fe f9 41 be d0 08 42 3c ec 10 10 3d
       0.12914333 -0.1894302 0.011842921 0.035172388
0003f0 fc 97 72 bd 18 59 25 3d 53 e1 2e be 18 a0 3a bd
       -0.059226975 0.04036817 -0.17078142 -0.045562834

conv2.bias f4 [16]
000000 ed 10 33 3e ab e7 89 bd b2 ae a8 bd 26 68 4a 3d
       0.17486925 -0.0673364 -0.082364455 0.04941573
000010 89 25 41 3c 09 e2 0a 3e f0 cd 13 3d ec bb 8b 3d
       0.011788734 0.13562788 0.03608507 0.06822953
000020 57 6a b6 3d 4d 21 7e bd b4 e2 b2 bd 4d 7c da 3d
       0.089070015 -0.062043477 -0.087346464 0.1066824
000030 10 57 1e be 5c 57 2a be f6 77 25 be 84 d4 45 be
       -0.15462899 -0.16634887 -0.16159043 -0.1931935

conv3.weight f4 [12, 16, 3]
000000 10 ba e5 3d 4c 93 90 3b 53 d6 04 bd 4b e9 e1 3d
       0.11217129 0.0044120904 -0.032430958 0.11030825
000010 79 6e 0e bc 96 64 0a 3d 6f 8d f3 bd 9a 30 30 bd
       -0.008693331 0.033787332 -0.11892211 -0.0430151
000020 e2 1b c0 3d e2 7c 72 3d 8d 0b 02 3e 30 a8 10 be
       0.09380318 0.05920113 0.12699719 -0.14126658
000030 2c 70 d3 3b af c9 00 3e 0f c7 df 3d aa 6c 78 3d
       0.006452581 0.12576936 0.10926639 0.060650505
000040 63 21 c2 3d 5a af 51 bd 38 9c 90 3c e8 cd bf bd
       0.09479024 -0.05119262 0.017652616 -0.093654454
000050 6c 73 6e 3d 20 89 68 bd 58 08 03 3e e0 e6 d5 3b
       0.058215544 -0.056771398 0.12796152 0.0065277666
000060 0c 30 af 3b 90 a7 41 bd 7b f5 8a bd 7a 97 0d be
       0.005346304 -0.04727894 -0.06785103 -0.13827315
000070 94 75 2e bd b4 5e ba 3d 1d eb 00 be c2 93 a5 bd
       -0.0425926 0.091000944 -0.12589689 -0.08084823
000080 aa 29 1f bd 1c 6f af bd 1e 81 60 bd c8 0f 0d be
       -0.038858093 -0.08566114 -0.054810636 -0.13775551
000090 10 93 3a 3d d6 25 a5 3d 84 08 0b be 28 5b 12 3d
       0.045550406 0.08063857 -0.13577467 0.035731465
0000a0 42 84 0c 3e b0 aa 13 bc 1f f3 9b bd de f9 81 3d
       0.13722327 -0.009012863 -0.07614731 0.063464865
0000b0 60 ec f9 bd 3c d5 ff 3d d9 6e b4 bd 10 e9 86 3d
       -0.12203288 0.12491843 -0.08810205 0.06587422
0000c0 fc a2 be bc 42 b0 d3 3d 5b b3 e3 3d 5b 1a 01 3e
       -0.023271076 0.10336353 0.11118194 0.1260771
0000d0 96 f9 2b 3d 3f 55 11 3e 80 c6 13 3c 8a 1b 89 bd
       0.04198607 0.14192675 0.009019494 -0.06694706
0000e0 d8 dd f2 3d 93 6e da bd bb 0d 95 bd de f7 c2 bc
       0.118587196 -0.106656216 -0.072780095 -0.023799833
0000f0 c0 01 61 bd a2 08 18 3d 48 6b 92 bc ee 6d 47 3d
       -0.05493331 0.037117608 -0.017873421 0.04868882
000100 b2 17 e0 3b 2f 9e 46 bc 7a 0f 0e bd 88 39 a0 3c
       0.006838762 -0.012122675 -0.03468273 0.019558683
000110 f2 ea cb bd 40 7e f4 bb d2 7b c3 3d 60 ec de 3d
       -0.09956922 -0.0074613392 0.09545101 0.10884929
000120 e2 fc 6a 3d ca bc 23 3c 07 cc 73 3d 77 95 a2 bd
       0.057370074 0.009993741 0.059520748 -0.079386644
000130 f9 9a 05 be 13 7f da bd b4 d0 c8 3d f8 ee 14 3d
       -0.13047399 -0.10668769 0.09805432 0.03636071
000140 c4 61 29 bd 1d d9 a8 bd 3b 33 ac 3d 23 49 e6 3d
       -0.041353002 -0.08244536 0.08408209 0.112444185
000150 30 25 1b bd 88 e9 10 bd 9e 16 59 bd 80 dc e3 3c
       -0.03787726 -0.035378963 -0.053000085 0.027815104
000160 98 eb ea 3d e8 9a 0a 3d c0 79 38 3d 1c be 08 3e
       0.11470717 0.033839136 0.045037985 0.13353771
000170 a0 9f 96 bb 40 93 af 3d c3 87 02 be 3f c6 e7 bd
       -0.0045966655 0.085730076 -0.12747101 -0.11317109
000180 70 90 b6 3c 48 ff 6d 3d 00 45 74 3b 83 5a f5 bc
       0.02228567 0.058104783 0.0037272573 -0.029950386
000190 0b 1f ab bd 11 b1 11 be 3e 11 0f bd d0 13 24 3d
       -0.0835553 -0.14227702 -0.034928553 0.040057957
0001a0 f3 0a fb bd 4f da f9 bd d8 f0 16 be 5d 3e ee 3c
       -0.12257948 -0.12199842 -0.14740312 0.029082472
0001b0 b8 ba a5 bd 58 24 1b be 02 28 04 3d fc 8f d1 3d
       -0.080922544 -0.15150583 0.032264717 0.10232541
0001c0 83 7a a9 3d 77 a7 a7 bd db bc 0e be a8 66 0b be
       0.082753204 -0.08186238 -0.1393923 -0.13613379
0001d0 b2 fe c2 bd 64 74 c1 bd 1c d2 e4 3d 00 15 f3 3d
       -0.095212355 -0.09446028 0.11172888 0.1186924
0001e0 b6 b7 28 3d 97 6e de 3d 13 a9 cb 3d 26 26 aa 3c
       0.041190825 0.10860937 0.09944358 0.020770144
0001f0 16 9d 8e bd f0 bc fd bd 54 35 74 bd 5a 47 e0 bd
       -0.069635555 -0.123895526 -0.05962117 -0.10951109
000200 0c 9e a6 3d 1f a9 b5 3d f3 25 13 3d 1e a4 ff bd
       0.08135614 0.08870148 0.035924863 -0.12482475
000210 10 12 cf 3c 4c 75 1a 3d a4 c3 ee 3d 9a a9 1f bd
       0.025277168 0.03770952 0.11658409 -0.038980104
000220 58 61 de 3c 16 bc 0b be 3c 64 df bc 6a 4e 9c 3d
       0.027146026 -0.13645968 -0.027269475 0.07632144
000230 cc cb 08 bd 19 98 a7 bd 5c 38 12 be 1a 1b 1a bd
       -0.03339748 -0.08183307 -0.14279312 -0.037623502
000240 a4 ea 9a 3d 20 f7 e4 3d da d6 a1 3d 98 ce 2a 3b
       0.075642854 0.11179948 0.07902308 0.002606308
000250 2b 48 03 be ff 41 82 3d a8 46 e3 3d b4 6d 18 3d
       -0.12820499 0.06360244 0.11097461 0.037213996
000260 60 e3 b9 bb 66 ac 32 3c 86 db 06 3d ac 18 30 bd
       -0.005672857 0.010905361 0.032924198 -0.04299228
000270 5a e9 68 bd c1 cd 81 bd 6a d4 7c 3d f7 2d da 3d
       -0.056863166 -0.063380726 0.06172601 0.10653298
000280 83 ed 91 3d 62 77 7b 3d 80 d3 36 bb de fd e1 bd
       0.0712538 0.06139315 -0.002789706 -0.110347494
000290 d0 73 45 bd b8 14 fb 3d 9c 8d b5 3d 24 4e 09 3e
       -0.04820615 0.12259811 0.088649005 0.13408715
0002a0 35 40 fc bd 2f 9c ff 3d 5d 17 c1 3d 78 cb d1 3d
       -0.12316934 0.124809615 0.09428284 0.10243887
0002b0 92 83 c9 bd ae 30 f2 bd 00 55 7b ba 10 2b f7 bd
       -0.09839548 -0.11825691 -0.0009587556 -0.120687604
0002c0 e4 5a 13 bd d3 c7 1c be 07 bd e5 3d 6c 29 81 bc
       -0.035975352 -0.15310602 0.11217695 -0.015766822
0002d0 4a b9 11 3e 34 de b3 bc d4 97 d0 bd c0 d1 f7 3d
       0.14230838 -0.02195654 -0.10185209 0.121005535
0002e0 4c 79 5c 3d 08 94 86 bd 86 b2 62 bd 02 78 12 be
       0.053826615 -0.065712035 -0.055346034 -0.14303592
0002f0 2d 2b e6 bd d0 fd 9f 3d 26 d9 cb bd 37 ee f3 bd
       -0.11238704 0.07812083 -0.09953527 -0.1191067
000300 20 4c c6 3d b0 9c 9b 3c 64 dd 14 bd 7d 1b a0 bc
       0.096824884 0.018995613 -0.036343947 -0.019544357
000310 cd 18 00 be 0c 2d 7f bd 10 ad 85 bc 91 4e 02 be
       -0.12509461 -0.06229882 -0.016317874 -0.12725283
000320 32 6d 83 3d 3e 5e 67 3d b7 20 da 3d e2 c6 71 3d
       0.06417312 0.05648636 0.10650771 0.05902756
000330 38 99 12 be d1 47 41 3d d2 0d 86 bb ab f6 c7 bd
       -0.14316261 0.04718763 -0.004091003 -0.09763845
000340 07 d3 17 3c 53 4e eb 3d fc d6 c0 3d cf 4c 11 be
       0.009266621 0.114895485 0.09416005 -0.14189456
000350 7a 3e 28 bd 70 85 4f 3d b0 35 38 3c f0 b9 13 3e
       -0.041075207 0.050664365 0.011243269 0.14426398
000360 15 1d 90 3d cb 1b f2 bd b2 fa 33 3d 01 79 e9 bd
       0.07036797 -0.11821707 0.043940254 -0.11400033
000370 e2 e1 0d 3e f8 ce be bc 14 d1 71 3d 64 e7 9f bc
       0.13855699 -0.02329205 0.059037283 -0.019519515
000380 1c dc 7e 3d 56 0e 2b bd ae 8c 42 bd 5c 02 fb 3c
       0.06222163 -0.04176172 -0.047497444 0.030640773
000390 4c af 31 3d e7 6d ef bd 08 af e3 3c aa 5d 03 be
       0.043380067 -0.11690884 0.027793422 -0.12828699
0003a0 dc d8 fb 3d de 86 12 3e c0 8c bd 3d 30 14 05 3e
       0.12297222 0.1430926 0.092553616 0.12995982
0003b0 cc d2 2b 3d ea f2 f5 bd df 11 a3 bd 6c 5f 04 be
       0.04194908 -0.12009223 -0.07962393 -0.12927026
0003c0 c0 98 ac bb d8 67 d3 bd e9 f6 75 bd ee 3d d3 3c
       -0.0052672327 -0.10322541 -0.060049925 0.025786366
0003d0 83 55 10 3e 3b 1a 01 3e b9 67 ed bd ac ba 13 3d
       0.1409512 0.12607662 -0.11592049 0.036066696
0003e0 3c 13 e3 bc f8 9d 54 bd 52 c2 6f 3d 35 93 99 3c
       -0.027719133 -0.051908463 0.058534928 0.018746952
0003f0 1d 2b 14 3e eb 3a eb bd 11 a6 b1 3d 90 49 fa bb
       0.14469571 -0.11485847 0.08674253 -0.007638164

conv3.bias f4 [12]
000000 02 bd 64 bd ca 00 23 3d 84 f0 b5 3c f8 63 89 bd
       -0.055844314 0.039795674 0.022209413 -0.06708521
000010 99 f5 6d 3d 04 ce e1 bd 84 36 8e bd d4 48 c7 3c
       0.05809555 -0.110256225 -0.06943992 0.02432672
000020 0e ef 08 3e 75 3a da 3c 49 20 07 be 28 9c 28 bb
       0.13372442 0.026639203 -0.1319591 -0.0025727842

conv4.weight f4 [1, 12, 3]
000000 3d 0f 03 be 5c e9 18 3e c8 71 b2 ba d1 d8 05 be
       -0.12798782 0.1493277 -0.0013614232 -0.1307099
000010 4a 6f 3c 3d 02 80 61 bd 6c aa ce bc ce 79 16 3d
       0.04600457 -0.05505372 -0.025227748 0.036737256
000020 21 bd 83 3d e6 cd 71 3c 27 ae aa bd ad 90 ee 3d
       0.06432558 0.014758563 -0.08333998 0.116486885
000030 da ee 29 3d 97 58 c5 bd 4c a3 1e 3e 89 97 26 be
       0.041487552 -0.09636038 0.1549198 -0.16268744
000040 95 b6 d3 3d 2e fb af bc 41 f8 b8 bd b5 f4 c7 3d
       0.10337559 -0.021482076 -0.09031726 0.09763471
000050 79 4a 7a bc be 99 01 3d a5 0f 31 be 7d 37 c7 3d
       -0.015276545 0.03164076 -0.17291124 0.097273804
000060 87 19 8d bd d9 07 aa 3d 21 60 07 3e 37 16 b4 bd
       -0.068896346 0.08302278 0.13220264 -0.087933
000070 c6 16 90 bc 2e c6 5c bd f6 8a a6 bd 1b 37 19 3e
       -0.017588984 -0.053899936 -0.081319734 0.14962427
000080 d2 f8 23 be 8d 64 e0 3d e5 53 c8 3d 10 49 0e 3e
       -0.16012886 0.109566785 0.097816266 0.13895059
