correction_net_single_element_dataset.pth (torch, 7452 bytes, 7 tensors)

conv1.weight f4 [8, 1, 3]
0	0x3e7526af	0.23940538
1	0xbea0cc59	-0.31405905
2	0x3bf81c76	0.007571752
3	0x3ed8ade7	0.42320177
4	0xbe4a85c2	-0.19777587
5	0x3e8970e0	0.2684393
6	0xbe730e14	-0.23735839
7	0xbce7971a	-0.028270293
8	0x3e545708	0.20736325
9	0xbeeb9896	-0.4601485
10	0x3eeaecda	0.45883828
11	0xbe4edb44	-0.2020083
12	0x3e3d6440	0.18495274
13	0x3e045991	0.12924792
14	0x3d4949bd	0.049142588
15	0xbe830abe	-0.25594133
16	0xbd90d349	-0.070715494
17	0x3ec521dc	0.38502395
18	0x3e50ce00	0.20391083
19	0xbe088c4c	-0.13334769
20	0xbeefe4dd	-0.46854296
21	0xbe0a5a26	-0.13510951
22	0xbf03183c	-0.51208854
23	0xbe04f079	-0.12982358

conv1.bias f4 [8]
0	0xbf1a6d96	-0.60323465
1	0xbf075b47	-0.52873653
2	0x3dce9348	0.100866854
3	0xbda4a982	-0.080401435
4	0xbe486c9d	-0.19572683
5	0xbe97f58c	-0.29679525
6	0xbe972cbc	-0.29526317
7	0xbf1e7223	-0.6189291

conv2.weight f4 [16, 8, 3]
0	0xbd83921c	-0.064243525
1	0x3d1d4f0a	0.038405456
2	0x3de569e2	0.11201836
3	0xbdba8837	-0.09108012
4	0xbe480b76	-0.19535622
5	0xbdc90ecc	-0.098172754
6	0xbe4ef551	-0.20210768
7	0xbdc421c6	-0.09576754
8	0x3d77149a	0.06032238
9	0xbe2a51af	-0.16632722
10	0x3d7d9261	0.061907176
11	0x3d5ed52a	0.054402508
12	0x3dcabdfc	0.09899518
13	0x3def5a52	0.11687149
14	0xbe4125a5	-0.18862016
15	0x3e1cefea	0.15325895
16	0x3d99ab68	0.07503396
17	0xbe759893	-0.23983984
18	0xbd55052c	-0.052006885
19	0x3e177e30	0.1479423
20	0xbe69070b	-0.22756593
21	0xbe7f1e44	-0.24913889
22	0x3b00aaf8	0.0019633155
23	0x3dca3668	0.098736584
24	0xbdef53db	-0.11685916
25	0x3e058132	0.13037565
26	0x3e13c311	0.1442988
27	0xbdb82826	-0.08992033
28	0xbc8ccede	-0.017188486
29	0x3e267774	0.16256505
30	0x3e269b55	0.16270192
31	0xbc090c16	-0.008364698
32	0x3df1447a	0.11780639
33	0xbe692d27	-0.2277113
34	0x3d9ebaa9	0.07750446
35	0x3e01f313	0.12690382
36	0xbd7ea8ca	-0.06217269
37	0xbbd56d4d	-0.006513274
38	0xbc6cb5d4	-0.014447648
39	0xbc4f4f77	-0.012653223
40	0xbe073f85	-0.13207825
41	0x3dd00380	0.101569176
42	0xbe04292e	-0.12906334
43	0xbdd7bb5c	-0.10533783
44	0x3c3be1ed	0.011467439
45	0x3de83760	0.11338687
46	0xbe275b81	-0.163435
47	0xbd463f3c	-0.04840015
48	0x3b9d88c5	0.004807564
49	0x3db83533	0.08994522
50	0xbde1ebca	-0.11031301
51	0x3e14dfc8	0.14538491
52	0xbe13819e	-0.14404914
53	0xbdad87e2	-0.08473183
54	0xbe34e973	-0.17667179
55	0x3d04090b	0.032235187
56	0x3d838589	0.06421954
57	0x3db5458b	0.08851155
58	0xbe2739c5	-0.16330631
59	0x3d8659bc	0.06560084
60	0x3e4d11a0	0.20026255
61	0xbdb77341	-0.0895753
62	0xbe4082e0	-0.18799925
63	0xbe3bc860	-0.18338156
64	0xbd8f3660	-0.06992793
65	0xbde0cb93	-0.10976329
66	0xbe58f8a6	-0.21188602
67	0x3ddad32e	0.106848106
68	0xbdb3f943	-0.08787777
69	0xbe48f2a8	-0.19623816
70	0x3e0933c3	0.13398652
71	0xbd3a1bc3	-0.045436632
72	0xbe3fe3e2	-0.18739274
73	0x3d6a594e	0.057214074
74	0xbe13d946	-0.14438352
75	0x3e2b656a	0.16737905
76	0x3cb8d76f	0.022563664
77	0xbd9823cb	-0.07428702
78	0xbe2ea60b	-0.17055528
79	0xbe6f62ae	-0.23377487
80	0x3b8dd294	0.0043280814
81	0xbd1df8cf	-0.03856736
82	0xbe32c328	-0.17457259
83	0x3d73b746	0.059500955
84	0xbd22f662	-0.03978575
85	0xbe1182e2	-0.14210084
86	0xbe0516d6	-0.12996992
87	0xbc89587d	-0.016765827
88	0x3d810542	0.06299831
89	0xbe0e339b	-0.13886873
90	0x3d6bdc70	0.057583272
91	0x3dc9b547	0.09849029
92	0x3dfa0b03	0.122091316
93	0x3d94ff2c	0.07275233
94	0xbe489a2b	-0.1959006
95	0xbe6d1467	-0.23152314
96	0x3e2f051e	0.17091796
97	0x3e3c4592	0.18385914
98	0xbe2711e9	-0.16315426
99	0x3df8ca11	0.12147916
100	0x3db8fe56	0.09032886
101	0xbc5113cd	-0.0127610685
102	0x3d945b0f	0.072439305
103	0xbe12f27b	-0.14350311
104	0x3e47f16b	0.19525687
105	0xbe0cea79	-0.13761319
106	0xbe08f220	-0.13373613
107	0xbe3189cd	-0.17337723
108	0x3d78e28c	0.060762927
109	0x3cde5b49	0.027143138
110	0x3d7f4a47	0.062326696
111	0xbe456a7d	-0.19278903
112	0x3e40b93c	0.18820661
113	0xbdadd11d	-0.08487151
114	0xbe125cb9	-0.14293183
115	0xbdb8bf22	-0.09020831
116	0xbdaf0cba	-0.08547349
117	0xbaa38011	-0.001247408
118	0xbe291ce9	-0.16514935
119	0xbdf61faa	-0.12017758
120	0xbe2f74d0	-0.17134404
121	0xbdd2ff34	-0.103025824
122	0x3b3b6785	0.0028595638
123	0xbb1fad6f	-0.002436485
124	0x3e56f0c8	0.20990288
125	0x3e024086	0.12719926
126	0xbe2c46a1	-0.16823818
127	0x3d6052fc	0.05476664
128	0xbd1de347	-0.038546827
129	0x3d73e948	0.059548646
130	0x3c942bb9	0.018087255
131	0xbe16f144	-0.14740473
132	0x3e22cde1	0.15898849
133	0x3e358038	0.17724693
134	0xbe1f72ab	-0.15571086
135	0x3db89795	0.09013287
136	0xbd019ade	-0.031641833
137	0x3e9055f6	0.28190583
138	0x3c9cdc59	0.019148039
139	0xbe097e6a	-0.1342713
140	0x3de01e92	0.10943331
141	0x3bce8303	0.006302239
142	0x3e12b676	0.14327416
143	0xbe3169c2	-0.173255
144	0xbd3e9d6b	-0.046536844
145	0xbdd23c14	-0.10265365
146	0xbdb1150d	-0.08646593
147	0x3d92b6a1	0.0716374
148	0xbe483ff0	-0.1955564
149	0x3de93a26	0.11388044
150	0xbe01435c	-0.12623352
151	0x3e5df2c7	0.21674643
152	0xbd1885f5	-0.037237126
153	0x3e685057	0.22686897
154	0x3e01615f	0.126348
155	0x3ce99608	0.028513923
156	0x3dbb3fad	0.091430046
157	0xbde2d571	-0.11075867
158	0x3e329bed	0.17442293
159	0xbd4ff0be	-0.0507667
160	0x3e82495a	0.25446588
161	0x3da74a6c	0.08168492
162	0x3e1c9163	0.15289836
163	0x3c120ee4	0.008914683
164	0xbe49a53e	-0.19691941
165	0xbc6b836c	-0.014374595
166	0xbd485ddf	-0.048917647
167	0xbda76bc0	-0.081748486
168	0xbc45be9c	-0.012069371
169	0x3ddc36d2	0.10752644
170	0xbe568466	-0.20948943
171	0xbe34d8f2	-0.17660883
172	0x3c7e6257	0.015526376
173	0x3d88c3c2	0.06677963
174	0xbe07a40f	-0.13246177
175	0xbae96ec8	-0.0017809505
176	0xbdc60b35	-0.09670106
177	0xbe3efb77	-0.18650614
178	0xbd790b5e	-0.060801856
179	0xbe73c382	-0.23805049
180	0xbe102528	-0.14076674
181	0xbe3f195d	-0.18662019
182	0x3d36ca8b	0.044626754
183	0x3c995323	0.0187164
184	0xbda0a7a7	-0.07844477
185	0xbd37bd52	-0.044858284
186	0x3d0e235a	0.034701683
187	0xbd94733b	-0.07248541
188	0xbe43fe86	-0.19140062
189	0xbe4924dc	-0.19642967
190	0x3ddc6d48	0.10763031
191	0xbd9f3e6d	-0.07775579
192	0xbe4eb687	-0.20186816
193	0x3e2a2811	0.16616847
194	0xbdd2ec52	-0.10298981
195	0x3cd485a4	0.025942631
196	0xbe20d08a	-0.15704551
197	0x3e2441c6	0.16040716
198	0xbd8b760c	-0.06809625
199	0xbd51e9f8	-0.05124852
200	0xbe382fed	-0.17987032
201	0x3e03e4a5	0.1288019
202	0xbb9a5ad7	-0.004710536
203	0xbdf5612e	-0.11981426
204	0x3d8a90a2	0.06765868
205	0x3c2b6153	0.010460216
206	0xbc93c647	-0.018038882
207	0xbd52e3e7	-0.051486876
208	0xbe492916	-0.1964458
209	0x3e241471	0.16023423
210	0x3e0bcefb	0.13653176
211	0x3db62e39	0.08895535
212	0x3e2616da	0.16219655
213	0xbe48d20f	-0.19611381
214	0xbd25df70	-0.04049629
215	0xbe42c57f	-0.19020651
216	0x3e04bd71	0.12962891
217	0x3d9203f5	0.07129661
218	0x3ca0f606	0.019648563
219	0x3e5d3b33	0.21604614
220	0x3df314aa	0.11869176
221	0x3d29c420	0.041446805
222	0x3e0bb9f4	0.13645154
223	0x3e07384b	0.13205068
224	0x3df5727f	0.11984729
225	0x3e059981	0.13046838
226	0xbe1134d2	-0.14180306
227	0xbe3a869c	-0.18215412
228	0xbda6361a	-0.08115788
229	0x3a618194	0.00086023775
230	0x3dda72a5	0.10666398
231	0x3de421dd	0.111392714
232	0xbe99daee	-0.30049843
233	0xbeae6afa	-0.34065992
234	0xbd97816a	-0.07397731
235	0x3d9b3edf	0.07580351
236	0x3e06f32b	0.13178699
237	0x3dac5e26	0.08416395
238	0x3da7776c	0.08177075
239	0x3dc25a28	0.09489852
240	0xbd6b54b6	-0.057453834
241	0x3e3c4e7a	0.18389311
242	0x3c388f12	0.011264579
243	0xbe61b546	-0.22041807
244	0xbcc28d26	-0.023748945
245	0xbcb203e4	-0.02173037
246	0xbc245b1f	-0.010031491
247	0x3cf4122c	0.029793821
248	0xbdde642a	-0.108589485
249	0x3dba6e8c	0.091031164
250	0xbd847ba2	-0.064688936
251	0x3ce6a97a	0.028156985
252	0x3cfbe242	0.030747537
253	0xbd2a56a9	-0.04158655
254	0x3dbbbf1c	0.091673106
255	0x3df55e09	0.119808264

conv2.bias f4 [16]
0	0xbc94d636	-0.01816855
1	0xbd3f7e14	-0.046751097
2	0x3dbbf9a3	0.09178474
3	0xbd0fb27c	-0.035082325
4	0x3e3df695	0.18551095
5	0xbd493237	-0.049120154
6	0x3d40c850	0.047066033
7	0xbc459dcc	-0.0120615475
8	0xbca4848b	-0.020082733
9	0xbe72531f	-0.2366452
10	0x3b0a833a	0.0021135346
11	0x3d8c53fc	0.06851956
12	0xbc9aa148	-0.018875733
13	0x3db6d8ca	0.08928068
14	0xbde6c847	-0.112686686
15	0xbe1a7526	-0.15083751

conv3.weight f4 [12, 16, 3]
0	0xbdb2e929	-0.08735878
1	0xbc795468	-0.015217878
2	0xbd84d361	-0.0648563
3	0xbe076f7f	-0.13226126
4	0xbc48902d	-0.012241405
5	0xbe2ba7cc	-0.16763228
6	0xbd035813	-0.032066416
7	0xbe272f2e	-0.16326591
8	0xbdac7013	-0.08419814
9	0x3d5c2fc9	0.05375651
10	0xbd9812e4	-0.07425478
11	0x3c6c718f	0.014431371
12	0xbd7b8366	-0.06140461
13	0x3dfbca25	0.122944154
14	0x3d64e9af	0.05588692
15	0xbdd7486a	-0.10511859
16	0x3e030d61	0.12798072
17	0x3decdc03	0.115654014
18	0xbd04311b	-0.032273393
19	0xbcf8fbd5	-0.03039352
20	0x3e1362aa	0.14393106
21	0xbdf457a2	-0.11930777
22	0xbe0a0097	-0.13476788
23	0xbdd0d8e3	-0.10197618
24	0xbe135e51	-0.14391448
25	0x3cce4ed0	0.025184065
26	0x3db55632	0.08854331
27	0x3c900915	0.017582456
28	0xbd993f20	-0.07482743
29	0x3db1d3b6	0.08682959
30	0xbda5c326	-0.08093862
31	0xbc881fb0	-0.016616672
32	0x3d41d7e9	0.04732505
33	0xbd05e9da	-0.03269372
34	0xbd86dd4b	-0.06585177
35	0x3c3076ed	0.010770542
36	0x3d5d00b3	0.053955745
37	0xbd89c36c	-0.06726727
38	0x3d13e0a4	0.036102906
39	0xbde2b416	-0.11069505
40	0x3dd79835	0.10527078
41	0x3dd4bda9	0.10387737
42	0xbb9172c3	-0.0044387295
43	0x3d8b4fa6	0.06802301
44	0xbe076b65	-0.13224562
45	0x3e0d8d93	0.13823538
46	0xbd37e9f5	-0.044900853
47	0x3d467966	0.04845562
48	0xbd564014	-0.052307203
49	0xbe3be529	-0.18349136
50	0x3de12a96	0.10994451
51	0xbc7c0df5	-0.015384187
52	0xbe057702	-0.13033679
53	0x3aa82864	0.001282942
54	0x3ce59adf	0.02802795
55	0xbe0d7cd3	-0.13817148
56	0xbda65fc8	-0.081237376
57	0xbd1bd04e	-0.03804045
58	0xbdb3f554	-0.08787027
59	0x3db61a6e	0.0889176
60	0xbc1590b7	-0.009128741
61	0x3de1dda5	0.110286035
62	0xbdd792ed	-0.10526071
63	0xbe2901e3	-0.16504626
64	0xbc2dbb8e	-0.010603799
65	0xbdcebc16	-0.10094468
66	0x3db311fb	0.08743664
67	0x3dcf4663	0.10120847
68	0xbdfa64c1	-0.122262485
69	0xbd43349e	-0.0476576
70	0x3d7e7360	0.06212175
71	0xbd572011	-0.052520815
72	0xbe171a47	-0.14756118
73	0x3d858150	0.06518805
74	0xbdc596dd	-0.096479155
75	0x3c1dbb58	0.009627186
76	0x3da0d069	0.07852251
77	0xbe3e8fd2	-0.1860955
78	0xbe456065	-0.19275053
79	0xbb163138	-0.002291752
80	0xbdb3e0f6	-0.08783142
81	0xbde0df23	-0.1098006
82	0xbdafcf94	-0.08584514
83	0xbdc48209	-0.09595115
84	0x3d876de7	0.06612759
85	0xbd3e4caf	-0.04645985
86	0x3dc31c7f	0.095269196
87	0xbdde4868	-0.10853654
88	0x3b6eb1d0	0.0036421902
89	0xbdd0ce1c	-0.10195562
90	0x3c39d4f1	0.011342273
91	0xbc6e2335	-0.014534761
92	0xbe09700d	-0.1342165
93	0x3d80643a	0.06269117
94	0x3dcceba2	0.10005881
95	0xbda40b23	-0.08009937
96	0x3c7212c2	0.01477498
97	0xbd19a22f	-0.037508186
98	0xbba80404	-0.005127432
99	0xbc3baf04	-0.011455301
100	0xbdcf5126	-0.101229
101	0xbce408dc	-0.027836256
102	0x3de1c6ff	0.110242836
103	0x3cb7ac6a	0.02242108
104	0xbcdc5330	-0.026895136
105	0x3dd4a74b	0.10383471
106	0x3d9547a5	0.07289056
107	0x3db11a20	0.08647561
108	0xbe020131	-0.12695767
109	0x3b60534c	0.0034229336
110	0x3c85a3e6	0.016313504
111	0xbca4fc7e	-0.020139929
112	0xbe0d9830	-0.13827586
113	0xbe11a91d	-0.14224668
114	0x3c2c0c08	0.010500915
115	0x3dcacc70	0.099022746
116	0xbd8065ae	-0.06269394
117	0xbd7b2bc5	-0.06132104
118	0x3c74388a	0.014906058
119	0xbdf68f06	-0.12038998
120	0xbd5f8608	-0.05457118
121	0xbde21f97	-0.110411815
122	0x3c9afcc6	0.01891936
123	0xbe10c9de	-0.14139506
124	0xbdaad6f5	-0.08341781
125	0xbccdf35f	-0.025140462
126	0xbd5fcbc4	-0.054637685
127	0x3d66ecca	0.056378163
128	0xbdd85663	-0.10563352
129	0x3c33daac	0.010977428
130	0x3de83e47	0.113400035
131	0x3dee1429	0.11624939
132	0xbdb54ac3	-0.0885215
133	0x3d3e640e	0.04648214
134	0x3c820509	0.015871542
135	0x3da76c28	0.08174926
136	0xbd2c67fe	-0.042091362
137	0xbd8d1fbb	-0.06890818
138	0x3d61cb02	0.055125244
139	0x3dc28e32	0.09499778
140	0x3d5189e2	0.051156886
141	0x3e0a49c5	0.13504703
142	0x3bed65c4	0.0072447974
143	0x3ab1b16d	0.0013556905
144	0xbcb4634e	-0.022020008
145	0x3d2d5795	0.042319853
146	0xbde2bc9a	-0.11071129
147	0x3b5ad9d1	0.003339399
148	0xbd9f94f1	-0.0779208
149	0xbdeee5ea	-0.116649464
150	0xbd9914fb	-0.07474705
151	0x3d7503ed	0.059818197
152	0x3d5b7a0c	0.05358319
153	0xbdf895de	-0.1213796
154	0x3da8f7d8	0.082503974
155	0x3c37ef4a	0.011226485
156	0xbdfc0817	-0.123062305
157	0xbd9b8cab	-0.0759519
158	0xbbf775e7	-0.007551897
159	0x3b6062ae	0.0034238505
160	0xbe447e13	-0.19188718
161	0x3e0ab144	0.13544184
162	0x3d822766	0.06355171
163	0xbcc55fe5	-0.024093578
164	0x3d4ed2d7	0.05049404
165	0xbd706c5f	-0.0586971
166	0xba3b85b8	-0.00071534095
167	0x3d8ebe07	0.069698386
168	0x3d4a8d96	0.049451433
169	0xbd581036	-0.052749835
170	0x3d3fc023	0.046814095
171	0xbc91c71d	-0.01779514
172	0x3dafc8d3	0.08583226
173	0xbe0ecb3e	-0.13944718
174	0xbdda16a1	-0.10648847
175	0x3d757379	0.059924576
176	0x3d5b5c7c	0.053554997
177	0xbdc71774	-0.0972127
178	0x3d2f69f6	0.04282566
179	0x3d575cd0	0.052578747
180	0xbdfbab6b	-0.12288555
181	0x3dc97f76	0.09838764
182	0xbe01c77c	-0.12673753
183	0xbe1781d4	-0.14795619
184	0xbe221f97	-0.15832363
185	0x3dc86c03	0.097862266
186	0xbd8eaada	-0.06966181
187	0xbc826ae7	-0.015920116
188	0x3db6f91a	0.08934231
189	0xbddc046a	-0.107430294
190	0xbce42652	-0.027850304
191	0xbe0d3911	-0.137913
192	0x3def8f7b	0.116972886
193	0x3d8ba3f9	0.06818385
194	0xbdccdcdc	-0.10003063
195	0x3ddd7ace	0.10814439
196	0xbd605a5a	-0.054773666
197	0x3dbba419	0.091621585
198	0x3d3b7b38	0.045771807
199	0x3dab02bd	0.08350132
200	0xbe156e7b	-0.14592926
201	0x3d513a01	0.051080707
202	0x3d814792	0.06312479
203	0xbccbcf8d	-0.024879241
204	0x3da9e04e	0.08294736
205	0xbd95f840	-0.073227406
206	0xbdf1be4f	-0.118038766
207	0xbd1fded0	-0.03903085
208	0x3bbe08ea	0.0057994025
209	0x3c8a8d14	0.016912974
210	0x3d8b6b82	0.06807615
211	0xbd8d832d	-0.069097854
212	0x3e484f24	0.1956144
213	0x3db4be93	0.08825412
214	0xbd9a3124	-0.07528904
215	0x3be1ea15	0.00689436
216	0x3cd3e395	0.025865356
217	0x3dea95cc	0.11454353
218	0x3ddee40c	0.1088334
219	0xbde8ae07	-0.11361318
220	0x3d0bc793	0.034125876
221	0x3ce686d4	0.028140463
222	0xbdbad2e6	-0.09122257
223	0x3e01da27	0.12680875
224	0x3e09722e	0.13422462
225	0x3dc24c11	0.09487165
226	0x3df4ac50	0.119469285
227	0xbdebb686	-0.11509423
228	0xbd681f33	-0.05667038
229	0x3b1bb288	0.0023757536
230	0x3d313b92	0.0432697
231	0xbe0207aa	-0.12698236
232	0x3d1e569e	0.038656823
233	0x3d467ac0	0.048456907
234	0xbdd368d3	-0.10322728
235	0x3dec6b8e	0.11543952
236	0x3d7a2701	0.061072353
237	0x3de344a4	0.110970765
238	0x3d7551b0	0.059892356
239	0x3be06242	0.0068476507
240	0x3db77f83	0.08959868
241	0x3d1bc4a2	0.03802932
242	0x3d8af984	0.067858726
243	0x3e1b8c81	0.15190317
244	0x3bbd884e	0.005784071
245	0xbd55700f	-0.05210882
246	0x3d2ca82e	0.042152576
247	0x3e43cd98	0.19121397
248	0xbd8a9b1e	-0.067678675
249	0x3e14c040	0.14526463
250	0xbdbf77b0	-0.093490005
251	0xbcd16e12	-0.02556518
252	0x3dd0dc4f	0.101982705
253	0x3c6b1dfe	0.014350412
254	0xbd22c481	-0.039738182
255	0x3d07b867	0.033134844

conv3.bias f4 [12]
0	0x3e17922c	0.14801854
1	0x3b093de6	0.0020941435
2	0xbd9bb26c	-0.07602391
3	0xbd060155	-0.032716114
4	0x3ce32cb8	0.027731284
5	0x3d9ea317	0.07745951
6	0xbd9ec90c	-0.077531904
7	0x3d2ed7a1	0.04268611
8	0xbddf3064	-0.10897902
9	0x3cc39249	0.023873465
10	0xbdd18503	-0.10230448
11	0x3ccae22a	0.024766047

conv4.weight f4 [1, 12, 3]
0	0xbdd613c6	-0.1045299
1	0x3dae5005	0.08511356
2	0x3d43d40c	0.047809646
3	0xbde6dae8	-0.11272222
4	0xbdbdace7	-0.09261494
5	0x3da01c68	0.07817918
6	0x3d99169b	0.07475015
7	0xbd63a19b	-0.05557404
8	0xbe06e5d4	-0.1317361
9	0xbd2ca5bf	-0.042150255
10	0x3ddba516	0.10724847
11	0xbc873565	-0.016504953
12	0x3d88b862	0.06675793
13	0x3d2638df	0.04058158
14	0x3e02798f	0.12741683
15	0x3da5fec7	0.081052355
16	0xbdeb1ef6	-0.11480515
17	0xbde5227e	-0.111882195
18	0x3d7815ea	0.060567774
19	0xbde026ba	-0.109448865
20	0xbdc00ffb	-0.09378048
21	0x3d7d7b17	0.061884966
22	0xbc4d529d	-0.012531904
23	0xbe0961fb	-0.13416283
24	0xbd5a8912	-0.053353377
25	0x3e501acf	0.20322727
26	0x3b93b7d6	0.004507999
27	0x3cd34680	0.025790453
28	0x3c9a0781	0.018802406
29	0xbd88cd2e	-0.0667976
30	0xbdab339b	-0.08359452
31	0xbd0d487b	-0.03449295
32	0x3e168a34	0.14701158
33	0xbe5193e0	-0.20466566
34	0xbd8ec28b	-0.069707
35	0x3db36320	0.08759141
