correction_net_epoch_9.pth (torch, 7540 bytes, 7 tensors)

conv1.weight f4 [8, 1, 3]
0	0x3ed1fd8e	0.4101376
1	0x3eb4eb88	0.35335946
2	0x3e1057bc	0.14095968
3	0xbee28068	-0.4423859
4	0xbed85413	-0.42251644
5	0xbec32b6e	-0.38119072
6	0xbe30043a	-0.17189112
7	0xbe2a34d2	-0.16621712
8	0xbe826971	-0.2547107
9	0xbf107ac2	-0.56437314
10	0x3d531354	0.051532105
11	0x3ebc6542	0.36796004
12	0x3f06dbed	0.5267933
13	0xbed77def	-0.42088267
14	0xbdd19c01	-0.102348335
15	0xbe934b65	-0.2876846
16	0x3ed745b8	0.4204538
17	0x3ea9e9dc	0.33186233
18	0xbedf386e	-0.4359774
19	0x3e9d8407	0.3076479
20	0xbed40e76	-0.41417283
21	0xbde51bb8	-0.111869276
22	0x3f0d3004	0.5515139
23	0x3ec1f782	0.37884146

conv1.bias f4 [8]
0	0xbf09cd7c	-0.5382917
1	0xbe116dbc	-0.14202017
2	0xbbe1eea3	-0.006894903
3	0xbf0804c0	-0.5313225
4	0xbe9a2d1c	-0.3011254
5	0xbf09fdff	-0.5390319
6	0x3daa5bea	0.083183125
7	0xbcadd5a0	-0.021220028

conv2.weight f4 [16, 8, 3]
0	0x3e226488	0.15858662
1	0xbca12138	-0.01966916
2	0x3c901e60	0.017592609
3	0xbe159e5a	-0.14611188
4	0xbe23e140	-0.16003895
5	0x3cfe35cb	0.03103151
6	0xbe85dc85	-0.26144806
7	0x3dfd7063	0.12374952
8	0x3e1c09bc	0.15238088
9	0xbdb9e670	-0.090771556
10	0xbd5646f7	-0.05231377
11	0x3d74c2ad	0.05975597
12	0xbe3194a0	-0.17341852
13	0xbda4e6b5	-0.080518164
14	0x3e14b02d	0.1452033
15	0x3e45fe44	0.19335276
16	0xbdf73138	-0.120699346
17	0xbdca1850	-0.098679185
18	0xbe423785	-0.18966492
19	0xbd889918	-0.06669825
20	0xbdb32b6e	-0.08748518
21	0xbe438e35	-0.19097216
22	0x3c689430	0.014195487
23	0xbe221e17	-0.15831791
24	0x3e207050	0.15667844
25	0xbd08e910	-0.03342539
26	0xbd295600	-0.04134178
27	0x3e35fdc3	0.17772584
28	0x3dbd7158	0.09250134
29	0x3ca2e8a5	0.019886324
30	0xbe0d66d4	-0.13808757
31	0x3e2de920	0.16983461
32	0xbd31ce05	-0.043409366
33	0xbd29a7cd	-0.041419793
34	0xbdf9f409	-0.12204749
35	0xbe6fc88b	-0.23416345
36	0x3de1d2be	0.11026524
37	0xbe1be2c4	-0.15223223
38	0x3e72087d	0.2363605
39	0xbcd3b0c8	-0.025841132
40	0xbc4d71d0	-0.012539342
41	0xbe0ba519	-0.13637199
42	0x3cb9c432	0.022676561
43	0xbe0bcbb0	-0.1365192
44	0xbe190af4	-0.14945585
45	0xbb969540	-0.0045954287
46	0x3e0200d2	0.12695625
47	0x3e2b4d88	0.16728795
48	0xbca5ae58	-0.020224735
49	0xbc27b2b0	-0.0102354735
50	0xbdb7b11a	-0.08969326
51	0x3d5ec9d2	0.05439169
52	0xbdfc27c9	-0.12312276
53	0xbe33e09a	-0.17566147
54	0x3dd9f9fc	0.10643384
55	0x3df12698	0.11774939
56	0xbe556f63	-0.20843272
57	0xbe1c7978	-0.15280712
58	0xbe6041c3	-0.21900086
59	0x3d8bf401	0.068336494
60	0xbe884fb4	-0.2662331
61	0x3d7c57d7	0.061607208
62	0xbe9af6c0	-0.3026638
63	0x3e30549a	0.17219773
64	0x3d8cd75c	0.06877014
65	0x3dd0eddc	0.10201618
66	0xbe700a61	-0.23441459
67	0x3e181653	0.14852266
68	0x3e1ff956	0.15622458
69	0x3e2f8bde	0.17143199
70	0x3e277684	0.16353804
71	0x3d8851c8	0.066562235
72	0x3e36d8e4	0.17856175
73	0xbdb70748	-0.08936936
74	0xba9a9a00	-0.0011795163
75	0xbe5e0dff	-0.21685027
76	0x3db4665e	0.088085875
77	0xbc1aac01	-0.009440423
78	0x3ceacca6	0.028662037
79	0x3e07c26d	0.13257761
80	0xbdbaec85	-0.09127144
81	0x3d4d5ae2	0.0501355
82	0xbe6dc3eb	-0.23219268
83	0x3e664aab	0.22489421
84	0xbe14ac1f	-0.14518784
85	0x3db5b66d	0.088726856
86	0x3db88bdd	0.09011052
87	0x3e11b2fe	0.14228436
88	0xbe1d11f7	-0.15338884
89	0x3c86f298	0.0164731
90	0xbe16b54c	-0.14717597
91	0xbd576b38	-0.052592486
92	0x3d954087	0.07287698
93	0x3e20f6c8	0.1571914
94	0x3da89f14	0.08233467
95	0xbe0a1c81	-0.13487436
96	0xbe1d9bac	-0.15391415
97	0xbc301e40	-0.0107494
98	0xbc1d5c20	-0.009604484
99	0xbe1645a9	-0.1467501
100	0xbdde8d2b	-0.108667694
101	0x3de91a14	0.11381927
102	0xbbc11d80	-0.0058934093
103	0x3e2bca70	0.16776443
104	0xbd9f0fd8	-0.07766694
105	0x3e1cfe14	0.15331298
106	0x3d8439d4	0.06456342
107	0x3e0369e2	0.1283336
108	0xbe0cf4c2	-0.13765243
109	0xbe0b0b3c	-0.13578504
110	0xbe4ca7ae	-0.1998584
111	0x3d6245e8	0.05524245
112	0x3a474f00	0.00076030195
113	0xbe13fb3c	-0.14451307
114	0xbc27fad0	-0.010252669
115	0xbde7d25e	-0.11319421
116	0xbe4d6a65	-0.20060118
117	0x3e357462	0.17720178
118	0xbe1c7e6d	-0.15282603
119	0x3e3787b8	0.17922866
120	0xbe203aa4	-0.1564737
121	0x3de449a0	0.11146855
122	0x3e413c94	0.18870765
123	0xbc552b28	-0.0130107775
124	0x3dc25a44	0.09489873
125	0x3ca810ed	0.020515883
126	0xbdabb2e9	-0.08383734
127	0xbe6283ef	-0.22120641
128	0x3cec2d66	0.028830241
129	0xbdc1ea4f	-0.09468519
130	0xbe25a443	-0.16175942
131	0xbe83ee37	-0.2576768
132	0xbd9f54ca	-0.07779844
133	0x3db529bf	0.08845853
134	0xbd04e434	-0.032444194
135	0xbdd984a3	-0.106210016
136	0x3df734e8	0.12070638
137	0xbe2b283d	-0.16714568
138	0xbc95c604	-0.018282898
139	0xbd97c84d	-0.07411251
140	0xbe6a822d	-0.2290122
141	0xbd213820	-0.039360166
142	0x3cbec860	0.023288906
143	0xbe067c58	-0.13133371
144	0xbcdb80a0	-0.026794732
145	0xbdbf94d2	-0.09354557
146	0xbd8b6ee0	-0.06808257
147	0x3d666612	0.056249686
148	0xbe5fd18a	-0.21857277
149	0xbe264009	-0.16235365
150	0x3e049498	0.12947309
151	0x3e14b4d4	0.14522105
152	0xbe243ca7	-0.16038762
153	0xbe20ab47	-0.15690337
154	0x3e29baa3	0.16575103
155	0xbe1cc472	-0.15309313
156	0x3e16c3e2	0.14723161
157	0xbe5b2931	-0.21402432
158	0x3d2a3f2c	0.04156415
159	0xbd6e7508	-0.05821708
160	0x3dce8708	0.10084349
161	0xbe025497	-0.12727581
162	0xbe150afd	-0.14554973
163	0x3dd7ef04	0.105436355
164	0x3cad3af4	0.021146275
165	0x3d1ec048	0.038757592
166	0xbd22ae90	-0.039717257
167	0x3dc45bac	0.095877975
168	0xbe4a2560	-0.1974082
169	0xbdd027a5	-0.101638116
170	0x3e315dca	0.17320934
171	0x3e18bf2c	0.14916676
172	0x3e16ea5e	0.14737841
173	0x3c93c7a4	0.018039532
174	0xbc2571f0	-0.010097966
175	0xbe2eb629	-0.17061676
176	0xbe41739d	-0.18891759
177	0x3d1b5484	0.037922397
178	0xbde1cea4	-0.11025742
179	0xbd6a635e	-0.05722367
180	0x3db8a30d	0.090154745
181	0x3d88f59f	0.066874735
182	0x3d33ef6d	0.043929506
183	0x3e3ff91c	0.18747371
184	0xbdb74eff	-0.08950614
185	0xbe4a0023	-0.19726615
186	0xbe553225	-0.2081991
187	0xbe23bbb8	-0.15989578
188	0xbe1a0612	-0.15041378
189	0xbd33ec64	-0.04392661
190	0x3dd52604	0.104076415
191	0xbd8f9f88	-0.0701285
192	0x3bce92e0	0.00630413
193	0x3da645c0	0.081187725
194	0x3e1e4668	0.15456545
195	0xbc3bf007	-0.011470801
196	0xbde45286	-0.111485526
197	0x3da25c5b	0.07927772
198	0xbd774c6e	-0.060375623
199	0xbe84e15f	-0.25953194
200	0x3d7faa6e	0.062418394
201	0xbe08ac26	-0.1334692
202	0xbdc661e0	-0.09686637
203	0xbe5ac432	-0.21363905
204	0xbbb4da79	-0.005519208
205	0x3dd3a762	0.1033466
206	0xbca7cebe	-0.020484325
207	0x3def0578	0.11670965
208	0xbdaba474	-0.08380976
209	0xbdd7fa06	-0.10545735
210	0xbd4634aa	-0.048390068
211	0xbe839741	-0.25701335
212	0xbe811967	-0.25214693
213	0xbd85188c	-0.064988226
214	0x3ddde9f4	0.10835639
215	0x3e42c1f0	0.19019294
216	0xbe37673e	-0.17910478
217	0xbc84faf8	-0.016232952
218	0x3e1bacde	0.15202662
219	0x3da2ed78	0.0795545
220	0x3d424918	0.04743299
221	0xbd9cda58	-0.07658833
222	0xbe00e824	-0.12588555
223	0xbe02ac40	-0.1276102
224	0xbdb74501	-0.08948708
225	0xbe111024	-0.14166313
226	0xbd202584	-0.039098278
227	0xbde09364	-0.109656125
228	0x3d585350	0.052813828
229	0xbc44ba70	-0.012007341
230	0x3e32cb90	0.17460465
231	0x3db97198	0.090548694
232	0x3d1356f4	0.035971597
233	0x3d7965e0	0.06088817
234	0x3d665888	0.056236774
235	0xbe4beb94	-0.19914085
236	0xbd546cd8	-0.051861614
237	0x3cc6b8d8	0.024258062
238	0xbd90820e	-0.07056056
239	0xbcaec988	-0.021336332
240	0xbe3a2e34	-0.18181688
241	0xbdd35eb3	-0.10320797
242	0xbdcf5803	-0.10124209
243	0xbd353e48	-0.04424885
244	0xbd96d2e6	-0.073644444
245	0xbe00b47e	-0.12568852
246	0xbd85360e	-0.06504451
247	0x3e42616a	0.18982473
248	0xbe3636b2	-0.17794302
249	0x3e47c12a	0.1950728
250	0xbd214584	-0.039372936
251	0x3cb32bb8	0.021871433
252	0x3caec5f8	0.021334633
253	0x3dafce7c	0.08584306
254	0xbda6f887	-0.081528716
255	0xbdd84f22	-0.105619684

conv2.bias f4 [16]
0	0x3dd1298e	0.10213004
1	0x3cccbe4c	0.024993084
2	0xbe150eea	-0.1455647
3	0x3d9f88c4	0.07789758
4	0x3dddb3fc	0.10825345
5	0x3d490a8a	0.049082316
6	0xbd8e20e3	-0.069398664
7	0xbe05623d	-0.13025756
8	0xbccdd19a	-0.02512436
9	0x3ca0ad28	0.019613817
10	0xbd1639b4	-0.036676124
11	0xbe82ae05	-0.2552339
12	0x3e32086c	0.17386025
13	0xbe1a2340	-0.1505251
14	0xbd984124	-0.074342996
15	0xbe6cd5c6	-0.23128423

conv3.weight f4 [12, 16, 3]
0	0xbdeeb5e0	-0.11655784
1	0xbd28c46c	-0.041202947
2	0xbd31e932	-0.043435283
3	0x3ca2db93	0.019880092
4	0xbe0c32dd	-0.13691278
5	0xbca7c2b9	-0.020478593
6	0x3d2aae9b	0.041670423
7	0x3da2843f	0.0793538
8	0x3db7c785	0.08973602
9	0x3dea2c7a	0.114342645
10	0xbdb13e1f	-0.08654427
11	0x3dca2286	0.09869866
12	0xbdbafa55	-0.09129778
13	0xbdd18644	-0.10230687
14	0xbd4814b6	-0.048847876
15	0xbe039949	-0.12851442
16	0x3d8f8582	0.070078865
17	0xbca7de79	-0.020491825
18	0xbcd7da2e	-0.026349153
19	0x3d9b8694	0.07594028
20	0xbe074177	-0.13208567
21	0xbd94d352	-0.07266869
22	0xbcae9c7b	-0.02131485
23	0xbe1b77c0	-0.151824
24	0x3db47207	0.088108115
25	0xbde71f99	-0.11285324
26	0x3dd797ee	0.10527025
27	0xbd49c5da	-0.04926095
28	0xbdbcc518	-0.0921728
29	0x3cf95700	0.030436993
30	0x3da312a6	0.07962541
31	0x3ce05ef8	0.027389035
32	0x3b1b3d00	0.0023687482
33	0xbcbd5c85	-0.023115406
34	0xbdda3b3b	-0.106558286
35	0x3d1e8819	0.03870401
36	0x3cf1be78	0.029509768
37	0xbdbaf1cc	-0.0912815
38	0x3daf7232	0.08566703
39	0x3e049184	0.12946135
40	0xbda88036	-0.08227579
41	0xbd02a007	-0.031890895
42	0xbc66a867	-0.014078236
43	0xbdb251ee	-0.08707033
44	0xbe331e59	-0.17492045
45	0xbda6434d	-0.08118305
46	0xbd8769f9	-0.066120096
47	0x3d864d36	0.065576956
48	0xbe821c83	-0.25412378
49	0xbe23b0e0	-0.15985441
50	0xbb36de6c	-0.002790357
51	0xbd97d9e7	-0.074146084
52	0xbd5dbc1a	-0.054134466
53	0xbdae7418	-0.08518237
54	0x3dcd3a2c	0.10020861
55	0xbe22afae	-0.15887329
56	0xbe161af5	-0.14658721
57	0xbda6baf4	-0.08141127
58	0xbd5cbd80	-0.05389166
59	0xbe16fd88	-0.14745152
60	0x3d8bcd4c	0.06826267
61	0xbe128122	-0.14307073
62	0xbe0b19cd	-0.13584061
63	0xbd91c569	-0.07117731
64	0x3d1445a0	0.036199212
65	0xbd4a6961	-0.049416903
66	0x3ddd186d	0.107956745
67	0xbd884fd4	-0.06655851
68	0x3cccccdc	0.025000028
69	0xbe3abd55	-0.18236287
70	0xbe37ceec	-0.17950028
71	0x3cefd46a	0.029276092
72	0xbd8a127c	-0.06741807
73	0xbe6900f9	-0.22754277
74	0x3d80196d	0.062548496
75	0xbd4e21c2	-0.050325163
76	0xbdc843e0	-0.09778571
77	0x3d6a00b8	0.05712959
78	0x3ca028d8	0.019550726
79	0x3d9bb6fa	0.076032594
80	0x3dd6de40	0.104916096
81	0x3d66b58b	0.056325477
82	0xbd52f0d5	-0.051499207
83	0x3c5ef0c7	0.0136072105
84	0xbcefd780	-0.029277563
85	0x3d272cf0	0.04081434
86	0x3cd16170	0.025559157
87	0xbe64941e	-0.22322127
88	0x3d98de17	0.07464235
89	0x3d685c88	0.05672887
90	0xbd1efe6d	-0.038816858
91	0xbdc4ebc3	-0.096152805
92	0xbe393360	-0.18086004
93	0xbd2b58fb	-0.041832905
94	0x3c3c6b2b	0.01150016
95	0xbc2e4391	-0.010636226
96	0x3df5574a	0.1197954
97	0x3d902d02	0.070398346
98	0xbd8bc2e9	-0.068242855
99	0xbd9f296a	-0.07771571
100	0xbdf8886e	-0.12135397
101	0xbe16ea6f	-0.14737867
102	0xbe2ae0de	-0.16687343
103	0x3d919c3b	0.07109877
104	0x3d070801	0.032966617
105	0x3d912acf	0.07088243
106	0x3d49b25a	0.049242355
107	0xbd4f603d	-0.05062889
108	0x3df87d1c	0.12133238
109	0xbde490a0	-0.111603975
110	0x3d39d138	0.045365542
111	0xbe184454	-0.14869815
112	0xbc733897	-0.014845035
113	0x3cde2d84	0.027121313
114	0xbd41bc07	-0.047298457
115	0x3d776f2f	0.060408767
116	0x3d9b26db	0.075757705
117	0x3cb3d4ef	0.02195212
118	0x3dc00131	0.09375227
119	0x3cbbb08a	0.022911329
120	0xbddf5a63	-0.10905912
121	0xbdbc4e72	-0.0919465
122	0x3e1801f0	0.14844489
123	0x3c7e1c80	0.015509725
124	0x3d1a83bc	0.037723288
125	0x3b6e3a00	0.0036350489
126	0x3e12ebd0	0.14347768
127	0xbd46eba0	-0.048564553
128	0xbddde878	-0.108353555
129	0x3a6ce7b7	0.0009037214
130	0x3dd3a0bc	0.10333392
131	0xbd88fb29	-0.0668853
132	0xbdfb6c88	-0.1227656
133	0xbe122da6	-0.14275226
134	0xbdbccb41	-0.09218455
135	0xbe2c5e90	-0.16832948
136	0xbe13c820	-0.1443181
137	0xbe28ec50	-0.16496396
138	0xbd8434d4	-0.06455389
139	0xbd5c4112	-0.053772993
140	0x3d40b218	0.047044843
141	0xbdd4d995	-0.10393063
142	0x3ce4d977	0.027935727
143	0xbdce0b30	-0.100607276
144	0x3d270239	0.040773604
145	0xbc09c13a	-0.008407885
146	0xbd54c530	-0.051945865
147	0x3c5f8e1a	0.0136447195
148	0xbe1dbf29	-0.15404953
149	0xbe38f222	-0.18061116
150	0xbe3b17eb	-0.18270843
151	0xbe095523	-0.13411383
152	0xbe2bec22	-0.16789296
153	0xbc8531a9	-0.016259031
154	0x3e36a3e3	0.17835955
155	0xbda6083f	-0.081070416
156	0xbde486b4	-0.11158505
157	0x3dee0894	0.1162273
158	0x3bb5ec80	0.0055518746
159	0x3cd7a7ce	0.026325133
160	0xbb9b3c0d	-0.004737383
161	0xbd3287ff	-0.043586727
162	0xbe01f05f	-0.1268935
163	0xbe3bf249	-0.18354143
164	0xbe20b737	-0.15694891
165	0xbe079136	-0.13238987
166	0x3da22f32	0.07919158
167	0x3da91e68	0.08257753
168	0x3ceb599e	0.028729256
169	0xbc185630	-0.009297892
170	0xbc865ef8	-0.016402707
171	0xbe044134	-0.12915498
172	0x3d916e14	0.07101074
173	0xbd9edc3f	-0.07756852
174	0x3dd98f14	0.10622993
175	0xbdf196c3	-0.11796334
176	0xbdec02d2	-0.115239754
177	0x3d3a9f50	0.04556209
178	0x3d979d40	0.0740304
179	0x3daf95a2	0.08573462
180	0xbe0f6642	-0.14003852
181	0x3dff48f8	0.124650896
182	0xbdbdae12	-0.09261717
183	0xbe4d45bb	-0.20046131
184	0xbea98a5e	-0.33113378
185	0xbdcaf636	-0.09910242
186	0x3d9c1e95	0.076230206
187	0xbdf665d6	-0.120311424
188	0xbe28b720	-0.16476107
189	0x3d2b7fd8	0.04186997
190	0x3cad5159	0.021156954
191	0xbc967045	-0.018364081
192	0x3d451aaf	0.04812115
193	0xbcba8b88	-0.022771612
194	0x3cd4ec00	0.02599144
195	0x3c32699f	0.01088944
196	0xbc475c03	-0.012167933
197	0xbdbbbed2	-0.091672555
198	0xbc0c87c2	-0.008577289
199	0x3d53842e	0.05163973
200	0xbc7f1df7	-0.015571109
201	0x3ca06478	0.019579157
202	0xbd9b276e	-0.0757588
203	0x3d09f262	0.03367842
204	0x3d8268e8	0.063676655
205	0xbd06999e	-0.032861345
206	0xbc3efa80	-0.011656404
207	0xbddf0c50	-0.1089102
208	0x3df33fa2	0.11877371
209	0xbdc9c808	-0.09852606
210	0xbd39ef01	-0.045393948
211	0x3d47eb4e	0.04880839
212	0xbe2dafd9	-0.16961612
213	0x3d16c875	0.036812264
214	0xbd7f557b	-0.06233738
215	0xbcb25e97	-0.02177362
216	0xbc85a8cb	-0.016315838
217	0x3d9f081e	0.0776522
218	0x3dac1984	0.08403304
219	0x3d860508	0.065439284
220	0xbdef4605	-0.11683277
221	0xbd0e5a4c	-0.034754083
222	0x3db6fc8c	0.08934888
223	0x3dd845e0	0.105602026
224	0xbdeb0eaf	-0.1147741
225	0xbdea4273	-0.114384554
226	0xbcad0955	-0.021122614
227	0x3d1f9feb	0.03897087
228	0xbda67091	-0.08126939
229	0x3c1eccb0	0.009692356
230	0x3d14640c	0.036228225
231	0xbe143244	-0.144723
232	0xbe2ab90e	-0.16672155
233	0xbe7aafca	-0.2448112
234	0x3bd76c96	0.0065742237
235	0xbe0491df	-0.1294627
236	0x3c61d3f2	0.013783442
237	0xbe0e6bb9	-0.1390828
238	0xbdf80535	-0.12110368
239	0xbb759e12	-0.003747825
240	0x3c50dfe7	0.012748695
241	0xbe1a94b2	-0.15095785
242	0x3e05045e	0.12989947
243	0xbd4e7b63	-0.05041064
244	0xbdbf17e3	-0.09330728
245	0xbd05b88e	-0.03264671
246	0xbd116121	-0.03549302
247	0xbe09fdc9	-0.13475718
248	0x3dbb7a79	0.09154219
249	0xbddb63bb	-0.107123815
250	0xbd82ac17	-0.0638048
251	0x3dc7089c	0.09718439
252	0x3caf81a8	0.02142413
253	0x3cbf7e18	0.023375556
254	0xbd8830f0	-0.06649959
255	0xbdd34067	-0.10315018

conv3.bias f4 [12]
0	0x3a17f702	0.0005797
1	0xbb6995d8	-0.0035642292
2	0x3d28d11b	0.041215044
3	0xbe6eb0e4	-0.23309666
4	0x3d767e7a	0.06017921
5	0xbd197e1a	-0.037473775
6	0xbe616e50	-0.22014737
7	0xbd4d14e8	-0.050068766
8	0xbde4b1ae	-0.11166702
9	0xbe09af13	-0.13445692
10	0xbaa94584	-0.0012914394
11	0xbe26190c	-0.16220492

conv4.weight f4 [1, 12, 3]
0	0xbc6d8e71	-0.014499293
1	0x3e14c43c	0.14527982
2	0xbdbebee5	-0.09313754
3	0xbd02ba59	-0.031915996
4	0xbd5e7122	-0.05430711
5	0xbe0e7f1e	-0.13915679
6	0xbd8dcbf9	-0.0692367
7	0xbba091c6	-0.00490019
8	0x3d4e2a0a	0.05033306
9	0xbd75d96b	-0.0600218
10	0xbe388f76	-0.18023476
11	0x3d85f956	0.06541698
12	0xbbda5a20	-0.006663576
13	0x3d1d5faa	0.03842131
14	0x3d643e26	0.055723332
15	0x3d78d042	0.060745485
16	0xbd047fd0	-0.032348454
17	0xbd537010	-0.051620543
18	0xbdb77a49	-0.08958871
19	0xbc872274	-0.01649592
20	0x3e4198c7	0.18905936
21	0x3d987684	0.0744448
22	0xbd8c5372	-0.068518534
23	0xbd7cf6ec	-0.06175892
24	0x3d97df79	0.07415671
25	0x3da2477d	0.079237916
26	0x3e038333	0.12843017
27	0x3d8e3042	0.06942798
28	0xbdd48a34	-0.10377923
29	0x3cfca6f6	0.030841332
30	0xbda594e0	-0.08085036
31	0xbd9f8e62	-0.07790829
32	0x3d886534	0.06659928
33	0xbdc950e4	-0.09829882
34	0xbd44b739	-0.048026297
35	0xbdc7171d	-0.097212054
